…
   macro avg       0.89      0.89      0.89    176812
weighted avg       0.89      0.89      0.89    176812

18:24:19 root INFO:        pred:0  pred:1
true:0   78682    9724
true:1    9724   7868222:27:05 root INFO:----- GPU INFORMATION: ----- 
22:27:05 root INFO:There are 1 GPU(s) available.
22:27:05 root INFO:GPU Device name: NVIDIA RTX A4000, 
22:27:05 root INFO: ** Evaluation on the TEST SET **
22:27:11 root INFO:BertTempProtClassifier(
  (bert): BertModel(
    (shared_parameters): ModuleDict()
    (invertible_adapters): ModuleDict()
    (embeddings): BertEmbeddings(
      (word_embeddings): Embedding(30, 1024, padding_idx=0)
      (position_embeddings): Embedding(40000, 1024)
      (token_type_embeddings): Embedding(2, 1024)
      (LayerNorm): LayerNorm((1024,), eps=1e-12, elementwise_affine=True)
      (dropout): Dropout(p=0.0, inplace=False)
    )
    (encoder): BertEncoder(
      (layer): ModuleList(
        (0): BertLayer(
          (attention): BertAttention(
            (self): BertSelfAttention(
              (query): Linear(
                in_features=1024, out_features=1024, bias=True
                (loras): ModuleDict()
              )
              (key): Linear(in_features=1024, out_features=1024, bias=True)
              (value): Linear(
                in_features=1024, out_features=1024, bias=True
                (loras): ModuleDict()
              )
              (dropout): Dropout(p=0.0, inplace=False)
              (prefix_tuning): PrefixTuningShim(
                (pool): PrefixTuningPool(
                  (prefix_tunings): ModuleDict()
                )
              )
            )
            (output): BertSelfOutput(
              (dense): Linear(in_features=1024, out_features=1024, bias=True)
              (LayerNorm): LayerNorm((1024,), eps=1e-12, elementwise_affine=True)
              (dropout): Dropout(p=0.0, inplace=False)
              (adapters): ModuleDict()
              (adapter_fusion_layer): ModuleDict()
            )
          )
          (intermediate): BertIntermediate(
            (dense): Linear(
              in_features=1024, out_features=4096, bias=True
              (loras): ModuleDict()
            )
            (intermediate_act_fn): GELUActivation()
          )
          (output): BertOutput(
            (dense): Linear(
              in_features=4096, out_features=1024, bias=True
              (loras): ModuleDict()
            )
            (LayerNorm): LayerNorm((1024,), eps=1e-12, elementwise_affine=True)
            (dropout): Dropout(p=0.0, inplace=False)
            (adapters): ModuleDict()
            (adapter_fusion_layer): ModuleDict()
          )
        )
        (1): BertLayer(
          (attention): BertAttention(
            (self): BertSelfAttention(
              (query): Linear(
                in_features=1024, out_features=1024, bias=True
                (loras): ModuleDict()
              )
              (key): Linear(in_features=1024, out_features=1024, bias=True)
              (value): Linear(
                in_features=1024, out_features=1024, bias=True
                (loras): ModuleDict()
              )
              (dropout): Dropout(p=0.0, inplace=False)
              (prefix_tuning): PrefixTuningShim(
                (pool): PrefixTuningPool(
                  (prefix_tunings): ModuleDict()
                )
              )
            )
            (output): BertSelfOutput(
              (dense): Linear(in_features=1024, out_features=1024, bias=True)
              (LayerNorm): LayerNorm((1024,), eps=1e-12, elementwise_affine=True)
              (dropout): Dropout(p=0.0, inplace=False)
              (adapters): ModuleDict()
              (adapter_fusion_layer): ModuleDict()
            )
          )
          (intermediate): BertIntermediate(
            (dense): Linear(
              in_features=1024, out_features=4096, bias=True
              (loras): ModuleDict()
            )
            (intermediate_act_fn): GELUActivation()
          )
          (output): BertOutput(
            (dense): Linear(
              in_features=4096, out_features=1024, bias=True
              (loras): ModuleDict()
            )
            (LayerNorm): LayerNorm((1024,), eps=1e-12, elementwise_affine=True)
            (dropout): Dropout(p=0.0, inplace=False)
            (adapters): ModuleDict()
            (adapter_fusion_layer): ModuleDict()
          )
        )
        (2): BertLayer(
          (attention): BertAttention(
            (self): BertSelfAttention(
              (query): Linear(
                in_features=1024, out_features=1024, bias=True
                (loras): ModuleDict()
              )
              (key): Linear(in_features=1024, out_features=1024, bias=True)
              (value): Linear(
                in_features=1024, out_features=1024, bias=True
                (loras): ModuleDict()
              )
              (dropout): Dropout(p=0.0, inplace=False)
              (prefix_tuning): PrefixTuningShim(
                (pool): PrefixTuningPool(
                  (prefix_tunings): ModuleDict()
                )
              )
            )
            (output): BertSelfOutput(
              (dense): Linear(in_features=1024, out_features=1024, bias=True)
              (LayerNorm): LayerNorm((1024,), eps=1e-12, elementwise_affine=True)
              (dropout): Dropout(p=0.0, inplace=False)
              (adapters): ModuleDict()
              (adapter_fusion_layer): ModuleDict()
            )
          )
          (intermediate): BertIntermediate(
            (dense): Linear(
              in_features=1024, out_features=4096, bias=True
              (loras): ModuleDict()
            )
            (intermediate_act_fn): GELUActivation()
          )
          (output): BertOutput(
            (dense): Linear(
              in_features=4096, out_features=1024, bias=True
              (loras): ModuleDict()
            )
            (LayerNorm): LayerNorm((1024,), eps=1e-12, elementwise_affine=True)
            (dropout): Dropout(p=0.0, inplace=False)
            (adapters): ModuleDict()
            (adapter_fusion_layer): ModuleDict()
          )
        )
        (3): BertLayer(
          (attention): BertAttention(
            (self): BertSelfAttention(
              (query): Linear(
                in_features=1024, out_features=1024, bias=True
                (loras): ModuleDict()
              )
              (key): Linear(in_features=1024, out_features=1024, bias=True)
              (value): Linear(
                in_features=1024, out_features=1024, bias=True
                (loras): ModuleDict()
              )
              (dropout): Dropout(p=0.0, inplace=False)
              (prefix_tuning): PrefixTuningShim(
                (pool): PrefixTuningPool(
                  (prefix_tunings): ModuleDict()
                )
              )
            )
            (output): BertSelfOutput(
              (dense): Linear(in_features=1024, out_features=1024, bias=True)
              (LayerNorm): LayerNorm((1024,), eps=1e-12, elementwise_affine=True)
              (dropout): Dropout(p=0.0, inplace=False)
              (adapters): ModuleDict()
              (adapter_fusion_layer): ModuleDict()
            )
          )
          (intermediate): BertIntermediate(
            (dense): Linear(
              in_features=1024, out_features=4096, bias=True
              (loras): ModuleDict()
            )
            (intermediate_act_fn): GELUActivation()
          )
          (output): BertOutput(
            (dense): Linear(
              in_features=4096, out_features=1024, bias=True
              (loras): ModuleDict()
            )
            (LayerNorm): LayerNorm((1024,), eps=1e-12, elementwise_affine=True)
            (dropout): Dropout(p=0.0, inplace=False)
            (adapters): ModuleDict()
            (adapter_fusion_layer): ModuleDict()
          )
        )
        (4): BertLayer(
          (attention): BertAttention(
            (self): BertSelfAttention(
              (query): Linear(
                in_features=1024, out_features=1024, bias=True
                (loras): ModuleDict()
              )
              (key): Linear(in_features=1024, out_features=1024, bias=True)
              (value): Linear(
                in_features=1024, out_features=1024, bias=True
                (loras): ModuleDict()
              )
              (dropout): Dropout(p=0.0, inplace=False)
              (prefix_tuning): PrefixTuningShim(
                (pool): PrefixTuningPool(
                  (prefix_tunings): ModuleDict()
                )
              )
            )
            (output): BertSelfOutput(
              (dense): Linear(in_features=1024, out_features=1024, bias=True)
              (LayerNorm): LayerNorm((1024,), eps=1e-12, elementwise_affine=True)
              (dropout): Dropout(p=0.0, inplace=False)
              (adapters): ModuleDict()
              (adapter_fusion_layer): ModuleDict()
            )
          )
          (intermediate): BertIntermediate(
            (dense): Linear(
              in_features=1024, out_features=4096, bias=True
              (loras): ModuleDict()
            )
            (intermediate_act_fn): GELUActivation()
          )
          (output): BertOutput(
            (dense): Linear(
              in_features=4096, out_features=1024, bias=True
              (loras): ModuleDict()
            )
            (LayerNorm): LayerNorm((1024,), eps=1e-12, elementwise_affine=True)
            (dropout): Dropout(p=0.0, inplace=False)
            (adapters): ModuleDict()
            (adapter_fusion_layer): ModuleDict()
          )
        )
        (5): BertLayer(
          (attention): BertAttention(
            (self): BertSelfAttention(
              (query): Linear(
                in_features=1024, out_features=1024, bias=True
                (loras): ModuleDict()
              )
              (key): Linear(in_features=1024, out_features=1024, bias=True)
              (value): Linear(
                in_features=1024, out_features=1024, bias=True
                (loras): ModuleDict()
              )
              (dropout): Dropout(p=0.0, inplace=False)
              (prefix_tuning): PrefixTuningShim(
                (pool): PrefixTuningPool(
                  (prefix_tunings): ModuleDict()
                )
              )
            )
            (output): BertSelfOutput(
              (dense): Linear(in_features=1024, out_features=1024, bias=True)
              (LayerNorm): LayerNorm((1024,), eps=1e-12, elementwise_affine=True)
              (dropout): Dropout(p=0.0, inplace=False)
              (adapters): ModuleDict()
              (adapter_fusion_layer): ModuleDict()
            )
          )
          (intermediate): BertIntermediate(
            (dense): Linear(
              in_features=1024, out_features=4096, bias=True
              (loras): ModuleDict()
            )
            (intermediate_act_fn): GELUActivation()
          )
          (output): BertOutput(
            (dense): Linear(
              in_features=4096, out_features=1024, bias=True
              (loras): ModuleDict()
            )
            (LayerNorm): LayerNorm((1024,), eps=1e-12, elementwise_affine=True)
            (dropout): Dropout(p=0.0, inplace=False)
            (adapters): ModuleDict()
            (adapter_fusion_layer): ModuleDict()
          )
        )
        (6): BertLayer(
          (attention): BertAttention(
            (self): BertSelfAttention(
              (query): Linear(
                in_features=1024, out_features=1024, bias=True
                (loras): ModuleDict()
              )
              (key): Linear(in_features=1024, out_features=1024, bias=True)
              (value): Linear(
                in_features=1024, out_features=1024, bias=True
                (loras): ModuleDict()
              )
              (dropout): Dropout(p=0.0, inplace=False)
              (prefix_tuning): PrefixTuningShim(
                (pool): PrefixTuningPool(
                  (prefix_tunings): ModuleDict()
                )
              )
            )
            (output): BertSelfOutput(
              (dense): Linear(in_features=1024, out_features=1024, bias=True)
              (LayerNorm): LayerNorm((1024,), eps=1e-12, elementwise_affine=True)
              (dropout): Dropout(p=0.0, inplace=False)
              (adapters): ModuleDict()
              (adapter_fusion_layer): ModuleDict()
            )
          )
          (intermediate): BertIntermediate(
            (dense): Linear(
              in_features=1024, out_features=4096, bias=True
              (loras): ModuleDict()
            )
            (intermediate_act_fn): GELUActivation()
          )
          (output): BertOutput(
            (dense): Linear(
              in_features=4096, out_features=1024, bias=True
              (loras): ModuleDict()
            )
            (LayerNorm): LayerNorm((1024,), eps=1e-12, elementwise_affine=True)
            (dropout): Dropout(p=0.0, inplace=False)
            (adapters): ModuleDict()
            (adapter_fusion_layer): ModuleDict()
          )
        )
        (7): BertLayer(
          (attention): BertAttention(
            (self): BertSelfAttention(
              (query): Linear(
                in_features=1024, out_features=1024, bias=True
                (loras): ModuleDict()
              )
              (key): Linear(in_features=1024, out_features=1024, bias=True)
              (value): Linear(
                in_features=1024, out_features=1024, bias=True
                (loras): ModuleDict()
              )
              (dropout): Dropout(p=0.0, inplace=False)
              (prefix_tuning): PrefixTuningShim(
                (pool): PrefixTuningPool(
                  (prefix_tunings): ModuleDict()
                )
              )
            )
            (output): BertSelfOutput(
              (dense): Linear(in_features=1024, out_features=1024, bias=True)
              (LayerNorm): LayerNorm((1024,), eps=1e-12, elementwise_affine=True)
              (dropout): Dropout(p=0.0, inplace=False)
              (adapters): ModuleDict()
              (adapter_fusion_layer): ModuleDict()
            )
          )
          (intermediate): BertIntermediate(
            (dense): Linear(
              in_features=1024, out_features=4096, bias=True
              (loras): ModuleDict()
            )
            (intermediate_act_fn): GELUActivation()
          )
          (output): BertOutput(
            (dense): Linear(
              in_features=4096, out_features=1024, bias=True
              (loras): ModuleDict()
            )
            (LayerNorm): LayerNorm((1024,), eps=1e-12, elementwise_affine=True)
            (dropout): Dropout(p=0.0, inplace=False)
            (adapters): ModuleDict()
            (adapter_fusion_layer): ModuleDict()
          )
        )
        (8): BertLayer(
          (attention): BertAttention(
            (self): BertSelfAttention(
              (query): Linear(
                in_features=1024, out_features=1024, bias=True
                (loras): ModuleDict()
              )
              (key): Linear(in_features=1024, out_features=1024, bias=True)
              (value): Linear(
                in_features=1024, out_features=1024, bias=True
                (loras): ModuleDict()
              )
              (dropout): Dropout(p=0.0, inplace=False)
              (prefix_tuning): PrefixTuningShim(
                (pool): PrefixTuningPool(
                  (prefix_tunings): ModuleDict()
                )
              )
            )
            (output): BertSelfOutput(
              (dense): Linear(in_features=1024, out_features=1024, bias=True)
              (LayerNorm): LayerNorm((1024,), eps=1e-12, elementwise_affine=True)
              (dropout): Dropout(p=0.0, inplace=False)
              (adapters): ModuleDict()
              (adapter_fusion_layer): ModuleDict()
            )
          )
          (intermediate): BertIntermediate(
            (dense): Linear(
              in_features=1024, out_features=4096, bias=True
              (loras): ModuleDict()
            )
            (intermediate_act_fn): GELUActivation()
          )
          (output): BertOutput(
            (dense): Linear(
              in_features=4096, out_features=1024, bias=True
              (loras): ModuleDict()
            )
            (LayerNorm): LayerNorm((1024,), eps=1e-12, elementwise_affine=True)
            (dropout): Dropout(p=0.0, inplace=False)
            (adapters): ModuleDict()
            (adapter_fusion_layer): ModuleDict()
          )
        )
        (9): BertLayer(
          (attention): BertAttention(
            (self): BertSelfAttention(
              (query): Linear(
                in_features=1024, out_features=1024, bias=True
                (loras): ModuleDict()
              )
              (key): Linear(in_features=1024, out_features=1024, bias=True)
              (value): Linear(
                in_features=1024, out_features=1024, bias=True
                (loras): ModuleDict()
              )
              (dropout): Dropout(p=0.0, inplace=False)
              (prefix_tuning): PrefixTuningShim(
                (pool): PrefixTuningPool(
                  (prefix_tunings): ModuleDict()
                )
              )
            )
            (output): BertSelfOutput(
              (dense): Linear(in_features=1024, out_features=1024, bias=True)
              (LayerNorm): LayerNorm((1024,), eps=1e-12, elementwise_affine=True)
              (dropout): Dropout(p=0.0, inplace=False)
              (adapters): ModuleDict()
              (adapter_fusion_layer): ModuleDict()
            )
          )
          (intermediate): BertIntermediate(
            (dense): Linear(
              in_features=1024, out_features=4096, bias=True
              (loras): ModuleDict()
            )
            (intermediate_act_fn): GELUActivation()
          )
          (output): BertOutput(
            (dense): Linear(
              in_features=4096, out_features=1024, bias=True
              (loras): ModuleDict()
            )
            (LayerNorm): LayerNorm((1024,), eps=1e-12, elementwise_affine=True)
            (dropout): Dropout(p=0.0, inplace=False)
            (adapters): ModuleDict()
            (adapter_fusion_layer): ModuleDict()
          )
        )
        (10): BertLayer(
          (attention): BertAttention(
            (self): BertSelfAttention(
              (query): Linear(
                in_features=1024, out_features=1024, bias=True
                (loras): ModuleDict()
              )
              (key): Linear(in_features=1024, out_features=1024, bias=True)
              (value): Linear(
                in_features=1024, out_features=1024, bias=True
                (loras): ModuleDict()
              )
              (dropout): Dropout(p=0.0, inplace=False)
              (prefix_tuning): PrefixTuningShim(
                (pool): PrefixTuningPool(
                  (prefix_tunings): ModuleDict()
                )
              )
            )
            (output): BertSelfOutput(
              (dense): Linear(in_features=1024, out_features=1024, bias=True)
              (LayerNorm): LayerNorm((1024,), eps=1e-12, elementwise_affine=True)
              (dropout): Dropout(p=0.0, inplace=False)
              (adapters): ModuleDict()
              (adapter_fusion_layer): ModuleDict()
            )
          )
          (intermediate): BertIntermediate(
            (dense): Linear(
              in_features=1024, out_features=4096, bias=True
              (loras): ModuleDict()
            )
            (intermediate_act_fn): GELUActivation()
          )
          (output): BertOutput(
            (dense): Linear(
              in_features=4096, out_features=1024, bias=True
              (loras): ModuleDict()
            )
            (LayerNorm): LayerNorm((1024,), eps=1e-12, elementwise_affine=True)
            (dropout): Dropout(p=0.0, inplace=False)
            (adapters): ModuleDict()
            (adapter_fusion_layer): ModuleDict()
          )
        )
        (11): BertLayer(
          (attention): BertAttention(
            (self): BertSelfAttention(
              (query): Linear(
                in_features=1024, out_features=1024, bias=True
                (loras): ModuleDict()
              )
              (key): Linear(in_features=1024, out_features=1024, bias=True)
              (value): Linear(
                in_features=1024, out_features=1024, bias=True
                (loras): ModuleDict()
              )
              (dropout): Dropout(p=0.0, inplace=False)
              (prefix_tuning): PrefixTuningShim(
                (pool): PrefixTuningPool(
                  (prefix_tunings): ModuleDict()
                )
              )
            )
            (output): BertSelfOutput(
              (dense): Linear(in_features=1024, out_features=1024, bias=True)
              (LayerNorm): LayerNorm((1024,), eps=1e-12, elementwise_affine=True)
              (dropout): Dropout(p=0.0, inplace=False)
              (adapters): ModuleDict()
              (adapter_fusion_layer): ModuleDict()
            )
          )
          (intermediate): BertIntermediate(
            (dense): Linear(
              in_features=1024, out_features=4096, bias=True
              (loras): ModuleDict()
            )
            (intermediate_act_fn): GELUActivation()
          )
          (output): BertOutput(
            (dense): Linear(
              in_features=4096, out_features=1024, bias=True
              (loras): ModuleDict()
            )
            (LayerNorm): LayerNorm((1024,), eps=1e-12, elementwise_affine=True)
            (dropout): Dropout(p=0.0, inplace=False)
            (adapters): ModuleDict()
            (adapter_fusion_layer): ModuleDict()
          )
        )
        (12): BertLayer(
          (attention): BertAttention(
            (self): BertSelfAttention(
              (query): Linear(
                in_features=1024, out_features=1024, bias=True
                (loras): ModuleDict()
              )
              (key): Linear(in_features=1024, out_features=1024, bias=True)
              (value): Linear(
                in_features=1024, out_features=1024, bias=True
                (loras): ModuleDict()
              )
              (dropout): Dropout(p=0.0, inplace=False)
              (prefix_tuning): PrefixTuningShim(
                (pool): PrefixTuningPool(
                  (prefix_tunings): ModuleDict()
                )
              )
            )
            (output): BertSelfOutput(
              (dense): Linear(in_features=1024, out_features=1024, bias=True)
              (LayerNorm): LayerNorm((1024,), eps=1e-12, elementwise_affine=True)
              (dropout): Dropout(p=0.0, inplace=False)
              (adapters): ModuleDict()
              (adapter_fusion_layer): ModuleDict()
            )
          )
          (intermediate): BertIntermediate(
            (dense): Linear(
              in_features=1024, out_features=4096, bias=True
              (loras): ModuleDict()
            )
            (intermediate_act_fn): GELUActivation()
          )
          (output): BertOutput(
            (dense): Linear(
              in_features=4096, out_features=1024, bias=True
              (loras): ModuleDict()
            )
            (LayerNorm): LayerNorm((1024,), eps=1e-12, elementwise_affine=True)
            (dropout): Dropout(p=0.0, inplace=False)
            (adapters): ModuleDict()
            (adapter_fusion_layer): ModuleDict()
          )
        )
        (13): BertLayer(
          (attention): BertAttention(
            (self): BertSelfAttention(
              (query): Linear(
                in_features=1024, out_features=1024, bias=True
                (loras): ModuleDict()
              )
              (key): Linear(in_features=1024, out_features=1024, bias=True)
              (value): Linear(
                in_features=1024, out_features=1024, bias=True
                (loras): ModuleDict()
              )
              (dropout): Dropout(p=0.0, inplace=False)
              (prefix_tuning): PrefixTuningShim(
                (pool): PrefixTuningPool(
                  (prefix_tunings): ModuleDict()
                )
              )
            )
            (output): BertSelfOutput(
              (dense): Linear(in_features=1024, out_features=1024, bias=True)
              (LayerNorm): LayerNorm((1024,), eps=1e-12, elementwise_affine=True)
              (dropout): Dropout(p=0.0, inplace=False)
              (adapters): ModuleDict()
              (adapter_fusion_layer): ModuleDict()
            )
          )
          (intermediate): BertIntermediate(
            (dense): Linear(
              in_features=1024, out_features=4096, bias=True
              (loras): ModuleDict()
            )
            (intermediate_act_fn): GELUActivation()
          )
          (output): BertOutput(
            (dense): Linear(
              in_features=4096, out_features=1024, bias=True
              (loras): ModuleDict()
            )
            (LayerNorm): LayerNorm((1024,), eps=1e-12, elementwise_affine=True)
            (dropout): Dropout(p=0.0, inplace=False)
            (adapters): ModuleDict()
            (adapter_fusion_layer): ModuleDict()
          )
        )
        (14): BertLayer(
          (attention): BertAttention(
            (self): BertSelfAttention(
              (query): Linear(
                in_features=1024, out_features=1024, bias=True
                (loras): ModuleDict()
              )
              (key): Linear(in_features=1024, out_features=1024, bias=True)
              (value): Linear(
                in_features=1024, out_features=1024, bias=True
                (loras): ModuleDict()
              )
              (dropout): Dropout(p=0.0, inplace=False)
              (prefix_tuning): PrefixTuningShim(
                (pool): PrefixTuningPool(
                  (prefix_tunings): ModuleDict()
                )
              )
            )
            (output): BertSelfOutput(
              (dense): Linear(in_features=1024, out_features=1024, bias=True)
              (LayerNorm): LayerNorm((1024,), eps=1e-12, elementwise_affine=True)
              (dropout): Dropout(p=0.0, inplace=False)
              (adapters): ModuleDict()
              (adapter_fusion_layer): ModuleDict()
            )
          )
          (intermediate): BertIntermediate(
            (dense): Linear(
              in_features=1024, out_features=4096, bias=True
              (loras): ModuleDict()
            )
            (intermediate_act_fn): GELUActivation()
          )
          (output): BertOutput(
            (dense): Linear(
              in_features=4096, out_features=1024, bias=True
              (loras): ModuleDict()
            )
            (LayerNorm): LayerNorm((1024,), eps=1e-12, elementwise_affine=True)
            (dropout): Dropout(p=0.0, inplace=False)
            (adapters): ModuleDict()
            (adapter_fusion_layer): ModuleDict()
          )
        )
        (15): BertLayer(
          (attention): BertAttention(
            (self): BertSelfAttention(
              (query): Linear(
                in_features=1024, out_features=1024, bias=True
                (loras): ModuleDict()
              )
              (key): Linear(in_features=1024, out_features=1024, bias=True)
              (value): Linear(
                in_features=1024, out_features=1024, bias=True
                (loras): ModuleDict()
              )
              (dropout): Dropout(p=0.0, inplace=False)
              (prefix_tuning): PrefixTuningShim(
                (pool): PrefixTuningPool(
                  (prefix_tunings): ModuleDict()
                )
              )
            )
            (output): BertSelfOutput(
              (dense): Linear(in_features=1024, out_features=1024, bias=True)
              (LayerNorm): LayerNorm((1024,), eps=1e-12, elementwise_affine=True)
              (dropout): Dropout(p=0.0, inplace=False)
              (adapters): ModuleDict()
              (adapter_fusion_layer): ModuleDict()
            )
          )
          (intermediate): BertIntermediate(
            (dense): Linear(
              in_features=1024, out_features=4096, bias=True
              (loras): ModuleDict()
            )
            (intermediate_act_fn): GELUActivation()
          )
          (output): BertOutput(
            (dense): Linear(
              in_features=4096, out_features=1024, bias=True
              (loras): ModuleDict()
            )
            (LayerNorm): LayerNorm((1024,), eps=1e-12, elementwise_affine=True)
            (dropout): Dropout(p=0.0, inplace=False)
            (adapters): ModuleDict()
            (adapter_fusion_layer): ModuleDict()
          )
        )
        (16): BertLayer(
          (attention): BertAttention(
            (self): BertSelfAttention(
              (query): Linear(
                in_features=1024, out_features=1024, bias=True
                (loras): ModuleDict()
              )
              (key): Linear(in_features=1024, out_features=1024, bias=True)
              (value): Linear(
                in_features=1024, out_features=1024, bias=True
                (loras): ModuleDict()
              )
              (dropout): Dropout(p=0.0, inplace=False)
              (prefix_tuning): PrefixTuningShim(
                (pool): PrefixTuningPool(
                  (prefix_tunings): ModuleDict()
                )
              )
            )
            (output): BertSelfOutput(
              (dense): Linear(in_features=1024, out_features=1024, bias=True)
              (LayerNorm): LayerNorm((1024,), eps=1e-12, elementwise_affine=True)
              (dropout): Dropout(p=0.0, inplace=False)
              (adapters): ModuleDict()
              (adapter_fusion_layer): ModuleDict()
            )
          )
          (intermediate): BertIntermediate(
            (dense): Linear(
              in_features=1024, out_features=4096, bias=True
              (loras): ModuleDict()
            )
            (intermediate_act_fn): GELUActivation()
          )
          (output): BertOutput(
            (dense): Linear(
              in_features=4096, out_features=1024, bias=True
              (loras): ModuleDict()
            )
            (LayerNorm): LayerNorm((1024,), eps=1e-12, elementwise_affine=True)
            (dropout): Dropout(p=0.0, inplace=False)
            (adapters): ModuleDict()
            (adapter_fusion_layer): ModuleDict()
          )
        )
        (17): BertLayer(
          (attention): BertAttention(
            (self): BertSelfAttention(
              (query): Linear(
                in_features=1024, out_features=1024, bias=True
                (loras): ModuleDict()
              )
              (key): Linear(in_features=1024, out_features=1024, bias=True)
              (value): Linear(
                in_features=1024, out_features=1024, bias=True
                (loras): ModuleDict()
              )
              (dropout): Dropout(p=0.0, inplace=False)
              (prefix_tuning): PrefixTuningShim(
                (pool): PrefixTuningPool(
                  (prefix_tunings): ModuleDict()
                )
              )
            )
            (output): BertSelfOutput(
              (dense): Linear(in_features=1024, out_features=1024, bias=True)
              (LayerNorm): LayerNorm((1024,), eps=1e-12, elementwise_affine=True)
              (dropout): Dropout(p=0.0, inplace=False)
              (adapters): ModuleDict()
              (adapter_fusion_layer): ModuleDict()
            )
          )
          (intermediate): BertIntermediate(
            (dense): Linear(
              in_features=1024, out_features=4096, bias=True
              (loras): ModuleDict()
            )
            (intermediate_act_fn): GELUActivation()
          )
          (output): BertOutput(
            (dense): Linear(
              in_features=4096, out_features=1024, bias=True
              (loras): ModuleDict()
            )
            (LayerNorm): LayerNorm((1024,), eps=1e-12, elementwise_affine=True)
            (dropout): Dropout(p=0.0, inplace=False)
            (adapters): ModuleDict()
            (adapter_fusion_layer): ModuleDict()
          )
        )
        (18): BertLayer(
          (attention): BertAttention(
            (self): BertSelfAttention(
              (query): Linear(
                in_features=1024, out_features=1024, bias=True
                (loras): ModuleDict()
              )
              (key): Linear(in_features=1024, out_features=1024, bias=True)
              (value): Linear(
                in_features=1024, out_features=1024, bias=True
                (loras): ModuleDict()
              )
              (dropout): Dropout(p=0.0, inplace=False)
              (prefix_tuning): PrefixTuningShim(
                (pool): PrefixTuningPool(
                  (prefix_tunings): ModuleDict()
                )
              )
            )
            (output): BertSelfOutput(
              (dense): Linear(in_features=1024, out_features=1024, bias=True)
              (LayerNorm): LayerNorm((1024,), eps=1e-12, elementwise_affine=True)
              (dropout): Dropout(p=0.0, inplace=False)
              (adapters): ModuleDict()
              (adapter_fusion_layer): ModuleDict()
            )
          )
          (intermediate): BertIntermediate(
            (dense): Linear(
              in_features=1024, out_features=4096, bias=True
              (loras): ModuleDict()
            )
            (intermediate_act_fn): GELUActivation()
          )
          (output): BertOutput(
            (dense): Linear(
              in_features=4096, out_features=1024, bias=True
              (loras): ModuleDict()
            )
            (LayerNorm): LayerNorm((1024,), eps=1e-12, elementwise_affine=True)
            (dropout): Dropout(p=0.0, inplace=False)
            (adapters): ModuleDict()
            (adapter_fusion_layer): ModuleDict()
          )
        )
        (19): BertLayer(
          (attention): BertAttention(
            (self): BertSelfAttention(
              (query): Linear(
                in_features=1024, out_features=1024, bias=True
                (loras): ModuleDict()
              )
              (key): Linear(in_features=1024, out_features=1024, bias=True)
              (value): Linear(
                in_features=1024, out_features=1024, bias=True
                (loras): ModuleDict()
              )
              (dropout): Dropout(p=0.0, inplace=False)
              (prefix_tuning): PrefixTuningShim(
                (pool): PrefixTuningPool(
                  (prefix_tunings): ModuleDict()
                )
              )
            )
            (output): BertSelfOutput(
              (dense): Linear(in_features=1024, out_features=1024, bias=True)
              (LayerNorm): LayerNorm((1024,), eps=1e-12, elementwise_affine=True)
              (dropout): Dropout(p=0.0, inplace=False)
              (adapters): ModuleDict()
              (adapter_fusion_layer): ModuleDict()
            )
          )
          (intermediate): BertIntermediate(
            (dense): Linear(
              in_features=1024, out_features=4096, bias=True
              (loras): ModuleDict()
            )
            (intermediate_act_fn): GELUActivation()
          )
          (output): BertOutput(
            (dense): Linear(
              in_features=4096, out_features=1024, bias=True
              (loras): ModuleDict()
            )
            (LayerNorm): LayerNorm((1024,), eps=1e-12, elementwise_affine=True)
            (dropout): Dropout(p=0.0, inplace=False)
            (adapters): ModuleDict()
            (adapter_fusion_layer): ModuleDict()
          )
        )
        (20): BertLayer(
          (attention): BertAttention(
            (self): BertSelfAttention(
              (query): Linear(
                in_features=1024, out_features=1024, bias=True
                (loras): ModuleDict()
              )
              (key): Linear(in_features=1024, out_features=1024, bias=True)
              (value): Linear(
                in_features=1024, out_features=1024, bias=True
                (loras): ModuleDict()
              )
              (dropout): Dropout(p=0.0, inplace=False)
              (prefix_tuning): PrefixTuningShim(
                (pool): PrefixTuningPool(
                  (prefix_tunings): ModuleDict()
                )
              )
            )
            (output): BertSelfOutput(
              (dense): Linear(in_features=1024, out_features=1024, bias=True)
              (LayerNorm): LayerNorm((1024,), eps=1e-12, elementwise_affine=True)
              (dropout): Dropout(p=0.0, inplace=False)
              (adapters): ModuleDict()
              (adapter_fusion_layer): ModuleDict()
            )
          )
          (intermediate): BertIntermediate(
            (dense): Linear(
              in_features=1024, out_features=4096, bias=True
              (loras): ModuleDict()
            )
            (intermediate_act_fn): GELUActivation()
          )
          (output): BertOutput(
            (dense): Linear(
              in_features=4096, out_features=1024, bias=True
              (loras): ModuleDict()
            )
            (LayerNorm): LayerNorm((1024,), eps=1e-12, elementwise_affine=True)
            (dropout): Dropout(p=0.0, inplace=False)
            (adapters): ModuleDict()
            (adapter_fusion_layer): ModuleDict()
          )
        )
        (21): BertLayer(
          (attention): BertAttention(
            (self): BertSelfAttention(
              (query): Linear(
                in_features=1024, out_features=1024, bias=True
                (loras): ModuleDict()
              )
              (key): Linear(in_features=1024, out_features=1024, bias=True)
              (value): Linear(
                in_features=1024, out_features=1024, bias=True
                (loras): ModuleDict()
              )
              (dropout): Dropout(p=0.0, inplace=False)
              (prefix_tuning): PrefixTuningShim(
                (pool): PrefixTuningPool(
                  (prefix_tunings): ModuleDict()
                )
              )
            )
            (output): BertSelfOutput(
              (dense): Linear(in_features=1024, out_features=1024, bias=True)
              (LayerNorm): LayerNorm((1024,), eps=1e-12, elementwise_affine=True)
              (dropout): Dropout(p=0.0, inplace=False)
              (adapters): ModuleDict()
              (adapter_fusion_layer): ModuleDict()
            )
          )
          (intermediate): BertIntermediate(
            (dense): Linear(
              in_features=1024, out_features=4096, bias=True
              (loras): ModuleDict()
            )
            (intermediate_act_fn): GELUActivation()
          )
          (output): BertOutput(
            (dense): Linear(
              in_features=4096, out_features=1024, bias=True
              (loras): ModuleDict()
            )
            (LayerNorm): LayerNorm((1024,), eps=1e-12, elementwise_affine=True)
            (dropout): Dropout(p=0.0, inplace=False)
            (adapters): ModuleDict()
            (adapter_fusion_layer): ModuleDict()
          )
        )
        (22): BertLayer(
          (attention): BertAttention(
            (self): BertSelfAttention(
              (query): Linear(
                in_features=1024, out_features=1024, bias=True
                (loras): ModuleDict()
              )
              (key): Linear(in_features=1024, out_features=1024, bias=True)
              (value): Linear(
                in_features=1024, out_features=1024, bias=True
                (loras): ModuleDict()
              )
              (dropout): Dropout(p=0.0, inplace=False)
              (prefix_tuning): PrefixTuningShim(
                (pool): PrefixTuningPool(
                  (prefix_tunings): ModuleDict()
                )
              )
            )
            (output): BertSelfOutput(
              (dense): Linear(in_features=1024, out_features=1024, bias=True)
              (LayerNorm): LayerNorm((1024,), eps=1e-12, elementwise_affine=True)
              (dropout): Dropout(p=0.0, inplace=False)
              (adapters): ModuleDict()
              (adapter_fusion_layer): ModuleDict()
            )
          )
          (intermediate): BertIntermediate(
            (dense): Linear(
              in_features=1024, out_features=4096, bias=True
              (loras): ModuleDict()
            )
            (intermediate_act_fn): GELUActivation()
          )
          (output): BertOutput(
            (dense): Linear(
              in_features=4096, out_features=1024, bias=True
              (loras): ModuleDict()
            )
            (LayerNorm): LayerNorm((1024,), eps=1e-12, elementwise_affine=True)
            (dropout): Dropout(p=0.0, inplace=False)
            (adapters): ModuleDict()
            (adapter_fusion_layer): ModuleDict()
          )
        )
        (23): BertLayer(
          (attention): BertAttention(
            (self): BertSelfAttention(
              (query): Linear(
                in_features=1024, out_features=1024, bias=True
                (loras): ModuleDict()
              )
              (key): Linear(in_features=1024, out_features=1024, bias=True)
              (value): Linear(
                in_features=1024, out_features=1024, bias=True
                (loras): ModuleDict()
              )
              (dropout): Dropout(p=0.0, inplace=False)
              (prefix_tuning): PrefixTuningShim(
                (pool): PrefixTuningPool(
                  (prefix_tunings): ModuleDict()
                )
              )
            )
            (output): BertSelfOutput(
              (dense): Linear(in_features=1024, out_features=1024, bias=True)
              (LayerNorm): LayerNorm((1024,), eps=1e-12, elementwise_affine=True)
              (dropout): Dropout(p=0.0, inplace=False)
              (adapters): ModuleDict()
              (adapter_fusion_layer): ModuleDict()
            )
          )
          (intermediate): BertIntermediate(
            (dense): Linear(
              in_features=1024, out_features=4096, bias=True
              (loras): ModuleDict()
            )
            (intermediate_act_fn): GELUActivation()
          )
          (output): BertOutput(
            (dense): Linear(
              in_features=4096, out_features=1024, bias=True
              (loras): ModuleDict()
            )
            (LayerNorm): LayerNorm((1024,), eps=1e-12, elementwise_affine=True)
            (dropout): Dropout(p=0.0, inplace=False)
            (adapters): ModuleDict()
            (adapter_fusion_layer): ModuleDict()
          )
        )
        (24): BertLayer(
          (attention): BertAttention(
            (self): BertSelfAttention(
              (query): Linear(
                in_features=1024, out_features=1024, bias=True
                (loras): ModuleDict()
              )
              (key): Linear(in_features=1024, out_features=1024, bias=True)
              (value): Linear(
                in_features=1024, out_features=1024, bias=True
                (loras): ModuleDict()
              )
              (dropout): Dropout(p=0.0, inplace=False)
              (prefix_tuning): PrefixTuningShim(
                (pool): PrefixTuningPool(
                  (prefix_tunings): ModuleDict()
                )
              )
            )
            (output): BertSelfOutput(
              (dense): Linear(in_features=1024, out_features=1024, bias=True)
              (LayerNorm): LayerNorm((1024,), eps=1e-12, elementwise_affine=True)
              (dropout): Dropout(p=0.0, inplace=False)
              (adapters): ModuleDict()
              (adapter_fusion_layer): ModuleDict()
            )
          )
          (intermediate): BertIntermediate(
            (dense): Linear(
              in_features=1024, out_features=4096, bias=True
              (loras): ModuleDict()
            )
            (intermediate_act_fn): GELUActivation()
          )
          (output): BertOutput(
            (dense): Linear(
              in_features=4096, out_features=1024, bias=True
              (loras): ModuleDict()
            )
            (LayerNorm): LayerNorm((1024,), eps=1e-12, elementwise_affine=True)
            (dropout): Dropout(p=0.0, inplace=False)
            (adapters): ModuleDict()
            (adapter_fusion_layer): ModuleDict()
          )
        )
        (25): BertLayer(
          (attention): BertAttention(
            (self): BertSelfAttention(
              (query): Linear(
                in_features=1024, out_features=1024, bias=True
                (loras): ModuleDict()
              )
              (key): Linear(in_features=1024, out_features=1024, bias=True)
              (value): Linear(
                in_features=1024, out_features=1024, bias=True
                (loras): ModuleDict()
              )
              (dropout): Dropout(p=0.0, inplace=False)
              (prefix_tuning): PrefixTuningShim(
                (pool): PrefixTuningPool(
                  (prefix_tunings): ModuleDict()
                )
              )
            )
            (output): BertSelfOutput(
              (dense): Linear(in_features=1024, out_features=1024, bias=True)
              (LayerNorm): LayerNorm((1024,), eps=1e-12, elementwise_affine=True)
              (dropout): Dropout(p=0.0, inplace=False)
              (adapters): ModuleDict()
              (adapter_fusion_layer): ModuleDict()
            )
          )
          (intermediate): BertIntermediate(
            (dense): Linear(
              in_features=1024, out_features=4096, bias=True
              (loras): ModuleDict()
            )
            (intermediate_act_fn): GELUActivation()
          )
          (output): BertOutput(
            (dense): Linear(
              in_features=4096, out_features=1024, bias=True
              (loras): ModuleDict()
            )
            (LayerNorm): LayerNorm((1024,), eps=1e-12, elementwise_affine=True)
            (dropout): Dropout(p=0.0, inplace=False)
            (adapters): ModuleDict()
            (adapter_fusion_layer): ModuleDict()
          )
        )
        (26): BertLayer(
          (attention): BertAttention(
            (self): BertSelfAttention(
              (query): Linear(
                in_features=1024, out_features=1024, bias=True
                (loras): ModuleDict()
              )
              (key): Linear(in_features=1024, out_features=1024, bias=True)
              (value): Linear(
                in_features=1024, out_features=1024, bias=True
                (loras): ModuleDict()
              )
              (dropout): Dropout(p=0.0, inplace=False)
              (prefix_tuning): PrefixTuningShim(
                (pool): PrefixTuningPool(
                  (prefix_tunings): ModuleDict()
                )
              )
            )
            (output): BertSelfOutput(
              (dense): Linear(in_features=1024, out_features=1024, bias=True)
              (LayerNorm): LayerNorm((1024,), eps=1e-12, elementwise_affine=True)
              (dropout): Dropout(p=0.0, inplace=False)
              (adapters): ModuleDict()
              (adapter_fusion_layer): ModuleDict()
            )
          )
          (intermediate): BertIntermediate(
            (dense): Linear(
              in_features=1024, out_features=4096, bias=True
              (loras): ModuleDict()
            )
            (intermediate_act_fn): GELUActivation()
          )
          (output): BertOutput(
            (dense): Linear(
              in_features=4096, out_features=1024, bias=True
              (loras): ModuleDict()
            )
            (LayerNorm): LayerNorm((1024,), eps=1e-12, elementwise_affine=True)
            (dropout): Dropout(p=0.0, inplace=False)
            (adapters): ModuleDict()
            (adapter_fusion_layer): ModuleDict()
          )
        )
        (27): BertLayer(
          (attention): BertAttention(
            (self): BertSelfAttention(
              (query): Linear(
                in_features=1024, out_features=1024, bias=True
                (loras): ModuleDict()
              )
              (key): Linear(in_features=1024, out_features=1024, bias=True)
              (value): Linear(
                in_features=1024, out_features=1024, bias=True
                (loras): ModuleDict()
              )
              (dropout): Dropout(p=0.0, inplace=False)
              (prefix_tuning): PrefixTuningShim(
                (pool): PrefixTuningPool(
                  (prefix_tunings): ModuleDict()
                )
              )
            )
            (output): BertSelfOutput(
              (dense): Linear(in_features=1024, out_features=1024, bias=True)
              (LayerNorm): LayerNorm((1024,), eps=1e-12, elementwise_affine=True)
              (dropout): Dropout(p=0.0, inplace=False)
              (adapters): ModuleDict()
              (adapter_fusion_layer): ModuleDict()
            )
          )
          (intermediate): BertIntermediate(
            (dense): Linear(
              in_features=1024, out_features=4096, bias=True
              (loras): ModuleDict()
            )
            (intermediate_act_fn): GELUActivation()
          )
          (output): BertOutput(
            (dense): Linear(
              in_features=4096, out_features=1024, bias=True
              (loras): ModuleDict()
            )
            (LayerNorm): LayerNorm((1024,), eps=1e-12, elementwise_affine=True)
            (dropout): Dropout(p=0.0, inplace=False)
            (adapters): ModuleDict()
            (adapter_fusion_layer): ModuleDict()
          )
        )
        (28): BertLayer(
          (attention): BertAttention(
            (self): BertSelfAttention(
              (query): Linear(
                in_features=1024, out_features=1024, bias=True
                (loras): ModuleDict()
              )
              (key): Linear(in_features=1024, out_features=1024, bias=True)
              (value): Linear(
                in_features=1024, out_features=1024, bias=True
                (loras): ModuleDict()
              )
              (dropout): Dropout(p=0.0, inplace=False)
              (prefix_tuning): PrefixTuningShim(
                (pool): PrefixTuningPool(
                  (prefix_tunings): ModuleDict()
                )
              )
            )
            (output): BertSelfOutput(
              (dense): Linear(in_features=1024, out_features=1024, bias=True)
              (LayerNorm): LayerNorm((1024,), eps=1e-12, elementwise_affine=True)
              (dropout): Dropout(p=0.0, inplace=False)
              (adapters): ModuleDict()
              (adapter_fusion_layer): ModuleDict()
            )
          )
          (intermediate): BertIntermediate(
            (dense): Linear(
              in_features=1024, out_features=4096, bias=True
              (loras): ModuleDict()
            )
            (intermediate_act_fn): GELUActivation()
          )
          (output): BertOutput(
            (dense): Linear(
              in_features=4096, out_features=1024, bias=True
              (loras): ModuleDict()
            )
            (LayerNorm): LayerNorm((1024,), eps=1e-12, elementwise_affine=True)
            (dropout): Dropout(p=0.0, inplace=False)
            (adapters): ModuleDict()
            (adapter_fusion_layer): ModuleDict()
          )
        )
        (29): BertLayer(
          (attention): BertAttention(
            (self): BertSelfAttention(
              (query): Linear(
                in_features=1024, out_features=1024, bias=True
                (loras): ModuleDict()
              )
              (key): Linear(in_features=1024, out_features=1024, bias=True)
              (value): Linear(
                in_features=1024, out_features=1024, bias=True
                (loras): ModuleDict()
              )
              (dropout): Dropout(p=0.0, inplace=False)
              (prefix_tuning): PrefixTuningShim(
                (pool): PrefixTuningPool(
                  (prefix_tunings): ModuleDict()
                )
              )
            )
            (output): BertSelfOutput(
              (dense): Linear(in_features=1024, out_features=1024, bias=True)
              (LayerNorm): LayerNorm((1024,), eps=1e-12, elementwise_affine=True)
              (dropout): Dropout(p=0.0, inplace=False)
              (adapters): ModuleDict()
              (adapter_fusion_layer): ModuleDict()
            )
          )
          (intermediate): BertIntermediate(
            (dense): Linear(
              in_features=1024, out_features=4096, bias=True
              (loras): ModuleDict()
            )
            (intermediate_act_fn): GELUActivation()
          )
          (output): BertOutput(
            (dense): Linear(
              in_features=4096, out_features=1024, bias=True
              (loras): ModuleDict()
            )
            (LayerNorm): LayerNorm((1024,), eps=1e-12, elementwise_affine=True)
            (dropout): Dropout(p=0.0, inplace=False)
            (adapters): ModuleDict()
            (adapter_fusion_layer): ModuleDict()
          )
        )
      )
    )
    (pooler): BertPooler(
      (dense): Linear(in_features=1024, out_features=1024, bias=True)
      (activation): Tanh()
    )
    (prefix_tuning): PrefixTuningPool(
      (prefix_tunings): ModuleDict()
    )
  )
  (classifier): Sequential(
    (0): Linear(in_features=1024, out_features=512, bias=True)
    (1): Tanh()
    (2): Linear(in_features=512, out_features=2, bias=True)
    (3): Tanh()
  )
)
22:27:13 root INFO:TEST SET distribution: Counter({1: 91682, 0: 91682})
01:38:18 root INFO:Check test loss: 0.3025 
01:38:18 root INFO:Evaluation on the test set ended, test loss: 0.3025 
01:38:28 root INFO:ROC AND METRICS ON TEST DATA, by best model
01:38:28 root INFO:*** EVALUATION ON TEST DATA USING VALIDATION THRESHOLD ***
01:38:28 root INFO:Applying the tuned threshold on val data: 0.3691
…
